quickdraw_classifier.pth (torch, 811192 bytes, 4 tensors)

fc1.weight f4 [256, 784]
0	0x3bdb0b6b	0.0066847107
1	0xb9a176e1	-0.00030796885
2	0xbc68e427	-0.014214552
3	0x3bb13609	0.005408053
4	0xbc5b440b	-0.013382922
5	0xbbe76645	-0.007061752
6	0x3c525267	0.012837029
7	0x3ba922a6	0.005161601
8	0xbab54b78	-0.0013831696
9	0xbc38dcb7	-0.011283091
10	0xbc1b1f40	-0.0094679
11	0xbc3c4a2d	-0.011492294
12	0x3b958328	0.004562754
13	0xbb5f448f	-0.0034067964
14	0x3b31166f	0.0027021428
15	0xbbdd9f4c	-0.0067633744
16	0xbb2253cd	-0.0024769187
17	0x3b2ceba6	0.0026385575
18	0xb92a7e42	-0.00016259498
19	0xbb36fe30	-0.0027922504
20	0x3c71ef92	0.014766591
21	0xbc47951d	-0.0121815475
22	0xbc07e6b6	-0.008294752
23	0xbafe42d3	-0.0019398577
24	0xbc16d7d5	-0.009206732
25	0x3be242f8	0.006904956
26	0x3afbda3d	0.001921482
27	0x3bbdc085	0.0057907724
28	0x3bf7b5db	0.0075595207
29	0xbb41cfad	-0.0029573247
30	0x3c4c2a3b	0.01246124
31	0x3c73586f	0.014852627
32	0x3c5536e4	0.013013575
33	0xbc62dd10	-0.013846651
34	0xbc53c22f	-0.012924715
35	0xbb1a63a3	-0.0023557923
36	0x3b3d18e5	0.002885395
37	0xbc994f8f	-0.018714694
38	0xba9f230c	-0.0012141182
39	0x3c49d0b3	0.012317824
40	0xbce0bed9	-0.027434753
41	0xbcefb8af	-0.029262869
42	0xbd4ea381	-0.0504489
43	0xbcca1383	-0.024667507
44	0xbd8e149a	-0.06937523
45	0xbd1598a0	-0.036522508
46	0xbc90a122	-0.01765496
47	0xbc0be1bc	-0.008537706
48	0xbc27b7e3	-0.010236713
49	0xbb963dea	-0.0045850175
50	0xbbd93ffb	-0.0066299415
51	0xbb0b26cf	-0.0021232849
52	0x3b59d48f	0.0033238267
53	0xbc503668	-0.012708284
54	0x3a0e3cc0	0.00054259226
55	0x3cafe33e	0.021470662
56	0x3b0e8ead	0.0021752522
57	0x3c24e5a3	0.010064515
58	0x3c8307f1	0.015994998
59	0x3d38dea2	0.045134194
60	0x3d16180d	0.03664403
61	0x3be9e06f	0.0071373503
62	0x3c9e8fee	0.01935574
63	0xbc769c1e	-0.01505187
64	0xbcf87a12	-0.030331645
65	0xbd11e0e2	-0.035614856
66	0xbcc07ec2	-0.023497943
67	0xbbcda777	-0.006276067
68	0xbd842d36	-0.06453936
69	0xbd802746	-0.06257491
70	0xbd6371e3	-0.055528533
71	0x3bf240ea	0.0073929923
72	0x3b8df42c	0.004332086
73	0xbd14e78a	-0.036353625
74	0xbd6faba7	-0.05851331
75	0xbd862539	-0.065500684
76	0xbd7ab17d	-0.061204422
77	0xbca646d0	-0.020297438
78	0xbc3df566	-0.011594152
79	0x3c96ba03	0.018399244
80	0xbc4bd75a	-0.0124414805
81	0xbc4d8dd7	-0.012546024
82	0xbc4a749a	-0.012356902
83	0xbc17ad29	-0.009257593
84	0xbc5a7d2b	-0.013335506
85	0x3c240c66	0.010012722
86	0x3cf213c2	0.029550437
87	0x3d5ee748	0.054419786
88	0x3d138c53	0.036022495
89	0x3d85baaf	0.06529748
90	0x3c32e2d4	0.010918338
91	0xbadbe2da	-0.0016775981
92	0x3d255656	0.04036554
93	0xbb122668	-0.0022300724
94	0x3be166ef	0.0068787257
95	0xbca34462	-0.019930068
96	0x3c63245d	0.01386365
97	0xbd8bba88	-0.068226874
98	0xbc9473c7	-0.018121613
99	0xbda12f85	-0.07870392
100	0x3ce57bba	0.028013099
101	0x3d8e473e	0.06947182
102	0xbc6ad814	-0.014333744
103	0x3c80e76c	0.01573535
104	0xbc596c13	-0.013270396
105	0x3c81568c	0.01578834
106	0x3cb71868	0.022350505
107	0xbc4415c1	-0.011968077
108	0x3add2e83	0.0016874823
109	0x3b93e258	0.0045130663
110	0xbba46969	-0.0050174487
111	0xbc489518	-0.012242578
112	0x3c76b741	0.01505834
113	0xbcc6298c	-0.024189733
114	0x3d153c9e	0.036434762
115	0x3d577ea3	0.052611005
116	0x3d74dc12	0.059780188
117	0x3d3a01f2	0.04541201
118	0x3c1a4231	0.009415195
119	0x3d1c3bb4	0.038142875
120	0x3c2d2a2f	0.010569139
121	0xbb5597a7	-0.0032591613
122	0x3cdcbf43	0.02694667
123	0xbcbdb5c8	-0.02315797
124	0x3c9524c3	0.018206006
125	0xbd29199a	-0.04128418
126	0xbd8970b8	-0.067109525
127	0xbd9f2dcb	-0.07772406
128	0xbccd2cc6	-0.025045764
129	0x3cd6b2b9	0.026208268
130	0xbce3776f	-0.027766911
131	0x3d05a1a6	0.032624863
132	0x3d71b4ae	0.0590102
133	0xbc82b2ef	-0.015954463
134	0xbca0c104	-0.019623287
135	0x3cd24b31	0.02567062
136	0x3cd6e866	0.026233863
137	0x3c800258	0.015626118
138	0x3c378c49	0.01120288
139	0x3bdd640f	0.0067563127
140	0x3c9babed	0.019002879
141	0x3c68a1c9	0.014198729
142	0x3cc72423	0.024309224
143	0x3a5257c3	0.0008023942
144	0x3b8bbf37	0.004264738
145	0x3d81eb56	0.06343715
146	0x3bcaae23	0.0061853095
147	0x3cf38a6a	0.029729087
148	0x3c32b521	0.010907442
149	0xbc73a271	-0.014870272
150	0xbb7c2642	-0.0038474952
151	0xbcb25f2b	-0.021773895
152	0xbd3f42e4	-0.04669465
153	0xbcf9debb	-0.030501714
154	0xbd7b0e6c	-0.06129305
155	0xbcbdb385	-0.02315689
156	0xba2b2efc	-0.00065301335
157	0x3c403e7e	0.011733649
158	0xbcba6fae	-0.022758331
159	0xbc7e019d	-0.015503314
160	0xbc5fbb5a	-0.013655508
161	0xbd137d17	-0.036007967
162	0xbcb646db	-0.022250583
163	0xbc799056	-0.015232166
164	0x3bb0766e	0.0053852117
165	0x3c5e1f53	0.013557273
166	0xbbf83644	-0.0075748283
167	0xbb4e4aa2	-0.003147759
168	0x3b9a095c	0.0047008228
169	0xbbde3f69	-0.0067824614
170	0x3d27fd2c	0.041012928
171	0x3d07dfba	0.033172347
172	0x3c637523	0.013882908
173	0x3d69ec69	0.057110224
174	0x398884bd	0.0002603884
175	0x3cd771e8	0.026299432
176	0xbd2ac97c	-0.041696057
177	0x3b4b69d8	0.003103843
178	0x3d15aa74	0.03653951
179	0x3ce45eb0	0.027877182
180	0x3d04e74f	0.032447156
181	0x3c9ec08e	0.019378927
182	0xbcefb0f3	-0.02925918
183	0xbcd34ff2	-0.025794957
184	0xbd416785	-0.047217865
185	0xbca379cd	-0.01995554
186	0x3c8b996e	0.017040934
187	0xbc98ad2d	-0.018637264
188	0xbd39abf8	-0.045330018
189	0x3d098298	0.03357181
190	0x3c3a39ab	0.011366288
191	0xbca9a1f7	-0.020707114
192	0xbc29fd6b	-0.010375361
193	0x3d009fbb	0.03140233
194	0x3c6fcbce	0.014635993
195	0x3c1b3f12	0.009475486
196	0x3b73643c	0.0037138602
197	0xbd094dd5	-0.033521492
198	0x3c0e0990	0.008669272
199	0x3a12e760	0.00056039356
200	0xbbbd8ff2	-0.005784982
201	0x3d592ecf	0.053023156
202	0x3d0a15ea	0.033712305
203	0x3bdcbe3d	0.0067365454
204	0x3a1992bd	0.00058583525
205	0x39822977	0.00024826426
206	0xbb6b5989	-0.0035911521
207	0x3cdd4c3d	0.027013892
208	0x3c9b8016	0.018981975
209	0xbbe2fcba	-0.0069271
210	0x3cdbb698	0.026820466
211	0xbcee882c	-0.029117666
212	0x3c9367fe	0.017993923
213	0xbb919237	-0.004442479
214	0xbc83e749	-0.016101496
215	0xbc11bd8c	-0.008895289
216	0xbac09c0d	-0.0014694944
217	0x3cdf3513	0.027246987
218	0xbcea1015	-0.028572122
219	0xbc0a7cc9	-0.008452603
220	0x3c95a0b2	0.018265102
221	0x3d89758a	0.06711872
222	0x3bc50e9d	0.006013705
223	0xbbd66674	-0.006542975
224	0x3c1deb14	0.0096385665
225	0xbbc2fcab	-0.0059505305
226	0x3ce8bdbf	0.02841079
227	0xbcfad102	-0.03061724
228	0xbc52f02e	-0.012874646
229	0x3bd3d73d	0.0064648674
230	0x3cb124b9	0.021623956
231	0x3d2a2f61	0.04154909
232	0xb9e0f5e4	-0.00042907812
233	0xbd724e64	-0.05915679
234	0xbc962145	-0.018326411
235	0xbc8f9a9b	-0.017529776
236	0x3d8bf98d	0.068347074
237	0x3cbe7093	0.023247039
238	0x3ca8813d	0.020569438
239	0xbd231851	-0.03981811
240	0x3c2402e4	0.010010455
241	0xbd0e28de	-0.034706943
242	0xbcf93c3e	-0.030424234
243	0xbc1f8611	-0.009736554
244	0xbd0a6078	-0.033783406
245	0xbce13687	-0.027491821
246	0xbd3a4ddc	-0.04548441
247	0x3adb7df7	0.0016745914
248	0x3c342233	0.010994482
249	0x3d02b6d6	0.031912647
250	0xbc8c1e7b	-0.017104378
251	0xbc20a843	-0.009805742
252	0xbc15cf0f	-0.009143605
253	0x3c205efc	0.009788271
254	0x3d67fc43	0.05663706
255	0xbc84a520	-0.016192019

fc1.bias f4 [256]
0	0xbd9b9fb1	-0.07598818
1	0xbe05a91f	-0.13052796
2	0x3cbedd6e	0.023298945
3	0xbe83d357	-0.25747177
4	0x3da7566a	0.08170779
5	0x3d3e23f4	0.046421006
6	0xbd9c27e1	-0.07624794
7	0xbe15e0c9	-0.1463653
8	0x3df559f7	0.1198005
9	0x3e48de6e	0.196161
10	0xbdc9a4c8	-0.09845883
11	0x3b02c9c1	0.001995668
12	0xbe322c48	-0.17399704
13	0xbcc74451	-0.024324568
14	0x3eaf2066	0.34204406
15	0x3db3dfa2	0.08782889
16	0x3ddc8ee3	0.10769441
17	0xba20d1d6	-0.00061347836
18	0x3e38dfa6	0.18054065
19	0xb95afea6	-0.00020884964
20	0x3cf2f723	0.02965886
21	0xbdcc75c6	-0.09983401
22	0x3caade9f	0.020858107
23	0xbd4ce522	-0.050023206
24	0x3deb7abe	0.114980206
25	0xbd142cef	-0.036175665
26	0x39517908	0.00019976881
27	0x3e8fcf76	0.28087968
28	0x3dca467e	0.098767266
29	0x3d068a42	0.032846697
30	0x3dfa4ee3	0.12222078
31	0xbdce4ba5	-0.10073022
32	0x3d356a8a	0.044291057
33	0x3c9f34f9	0.019434439
34	0xbe009544	-0.1255694
35	0x3dde02e9	0.10840399
36	0xbc69abc4	-0.0142621435
37	0x3d91f97b	0.07127663
38	0x3c6d499e	0.014482884
39	0xbe8d9652	-0.27653748
40	0x3e404c9c	0.18779224
41	0x3d30954a	0.043111123
42	0xbb542790	-0.0032372214
43	0x3d18cd98	0.037305444
44	0x3e7a882d	0.2446601
45	0xbf2b6709	-0.66954094
46	0x3dfaeca5	0.122521676
47	0xbd5c1946	-0.05373504
48	0x3daf9718	0.08573741
49	0xbd55f706	-0.052237533
50	0xbaa39dca	-0.0012482938
51	0x3eb2f0ba	0.34949285
52	0x3daaf0c9	0.083467074
53	0xbbeb337f	-0.0071777697
54	0x3d9b0dfc	0.07571027
55	0x3dba069f	0.09083294
56	0x3b3a51a7	0.0028430016
57	0xbda3ff2c	-0.080076545
58	0xbe8129e1	-0.25227264
59	0x3d7790e3	0.06044091
60	0xbe37f8ce	-0.17966005
61	0xbd3a0bc3	-0.045421373
62	0x3d3fc01c	0.04681407
63	0xbc81286a	-0.015766341
64	0xbe879f80	-0.26488876
65	0xbda294ba	-0.079385236
66	0x3e5ce5c3	0.21572022
67	0x3e84eb07	0.25960562
68	0xbd7d27ad	-0.061805416
69	0x3b9a9994	0.004718015
70	0xbcb893cf	-0.022531418
71	0x3d6ea685	0.058264274
72	0xbc075b32	-0.008261489
73	0x3e213a00	0.15744781
74	0x3cd6119d	0.026131446
75	0x3e58c489	0.21168722
76	0x3d7fc8aa	0.062447228
77	0xbe0f21cc	-0.13977736
78	0xbd7bc55c	-0.061467513
79	0xbd7534c0	-0.05986476
80	0xbd8db964	-0.06920126
81	0xbec38b7e	-0.38192362
82	0x3dd391c7	0.10330539
83	0x3d5c231a	0.053744413
84	0x3d13b81a	0.036064245
85	0xbdce7cea	-0.10082419
86	0xbac5b87a	-0.0015084886
87	0xbeb52231	-0.35377648
88	0x3df79213	0.12088408
89	0xbcb473a4	-0.022027798
90	0xbe5316fe	-0.2061424
91	0xbdeb93c2	-0.11502792
92	0x3eb2cd1d	0.34922114
93	0xbdf8c0e0	-0.12146163
94	0x3e3146a2	0.173121
95	0xbe2881fa	-0.16455832
96	0x3c24de36	0.010062745
97	0x3df0279a	0.117263034
98	0x3daf8f7b	0.085722886
99	0xbe276758	-0.16348016
100	0x3e2fa9ef	0.17154668
101	0x3e46fb4f	0.19431804
102	0x3e9306cd	0.28716126
103	0x3d0a86d6	0.033819996
104	0x3b2bf873	0.0026240617
105	0x3e188d88	0.1489774
106	0x3c2ef8ed	0.010679466
107	0xbeb0e264	-0.34547722
108	0x3e06a256	0.13147864
109	0x3bc16ed1	0.005903103
110	0xbb211771	-0.0024580623
111	0xbc30ea5a	-0.010798061
112	0x3e10c20c	0.14136523
113	0x3cce8c96	0.025213521
114	0x3d4facca	0.050701894
115	0xbe23f201	-0.16010286
116	0xbf137870	-0.5760565
117	0x3c4c01c4	0.012451593
118	0xbd11c182	-0.035584934
119	0xbc012709	-0.007882842
120	0x3bffb3d6	0.0078034205
121	0x3df574ab	0.11985143
122	0xbde735bc	-0.11289546
123	0x3cdfac17	0.027303739
124	0xbce8e31b	-0.028428605
125	0xbe2b7376	-0.16743264
126	0x3f33a79a	0.70177615
127	0xbe9c9a11	-0.30586293
128	0x3c540a14	0.012941856
129	0xbd755d03	-0.059903156
130	0xbe51b8fd	-0.20480724
131	0xbb5a017e	-0.003326505
132	0xbd8e5261	-0.06949306
133	0xbdeb87bc	-0.11500499
134	0x3c77f5d1	0.015134291
135	0x3e04a86a	0.1295487
136	0x3e39d204	0.18146521
137	0x3db94405	0.09046177
138	0x3e2a9db3	0.1666172
139	0x3cb98a0e	0.022648837
140	0xbe30b7fa	-0.17257681
141	0xbde6d0bb	-0.11270281
142	0xbe201b4d	-0.15635414
143	0x3dea4f65	0.114409246
144	0x3e25f3a9	0.1620623
145	0x3bf750a0	0.007547453
146	0xbd10f515	-0.03538998
147	0xbec88fa3	-0.39172086
148	0x3e577b32	0.21043089
149	0x3c5ea850	0.0135899335
150	0x3d7fbbcf	0.062434968
151	0xbd4bb735	-0.049735267
152	0xbd90337f	-0.07041072
153	0x3d57d9ca	0.052697934
154	0x3d4a6d01	0.04942036
155	0xbd8c2bca	-0.068442896
156	0x3d79f217	0.06102189
157	0x3e1e4341	0.15455343
158	0xbe61f60d	-0.22066517
159	0xbde0c6aa	-0.10975392
160	0xbd4760c5	-0.04867627
161	0x3b318c07	0.002709152
162	0x3d84077a	0.064467385
163	0xbaad4914	-0.0013220632
164	0x3d810dfe	0.06301497
165	0x3befcb5f	0.007317945
166	0xbe79ea6b	-0.2440583
167	0xbe2a70fc	-0.16644663
168	0xbd0449f4	-0.03229709
169	0xbd6c2ab2	-0.057657905
170	0x3e205f56	0.15661368
171	0x3e9b74e2	0.30362612
172	0x3e15d9f6	0.14633927
173	0x3e0d1452	0.13777283
174	0xbd5eb372	-0.05437035
175	0xbe021e77	-0.12706934
176	0xbe4df0f4	-0.20111448
177	0x3d4bd36f	0.049762186
178	0xbeaee6e8	-0.34160542
179	0x3b5e37b3	0.003390771
180	0xbece8959	-0.40339163
181	0x3c1b77c6	0.009489005
182	0x3dbb74e9	0.09153158
183	0x3e28b457	0.16475044
184	0xbdbc4611	-0.091930516
185	0xbd82b8c3	-0.06382897
186	0xbd851cda	-0.064996436
187	0x3e537602	0.20650485
188	0xbce5f1eb	-0.028069457
189	0x3d44e4ab	0.048069637
190	0xbd19db0f	-0.037562426
191	0x3d285a14	0.04110153
192	0xbca4e7a6	-0.02012999
193	0x3d64b6f7	0.05583855
194	0x3eb3a7dd	0.35089007
195	0xbddb4703	-0.10706904
196	0x3df82a0b	0.12117394
197	0x3c9ad735	0.018901447
198	0x3bd68592	0.0065466845
199	0xbdb43367	-0.08798867
200	0x3e06bb73	0.13157444
201	0x3e0c3e6a	0.13695684
202	0xbb24bbfb	-0.002513646
203	0x3d6eb9d2	0.05828268
204	0x3ca712cd	0.020394707
205	0x3d29d04e	0.04145842
206	0xbd4b254e	-0.049596123
207	0x3d868d26	0.06569891
208	0x3e683f2a	0.22680345
209	0x3c43ed8f	0.011958494
210	0x3baee262	0.0053370455
211	0x3c6ecd7e	0.01457536
212	0x3ddcdb2a	0.1078399
213	0x3e1fcadd	0.1560473
214	0xbc3aaad6	-0.0113932695
215	0x3a67cd36	0.00088425295
216	0x3c631b61	0.013861508
217	0x3e2c40a9	0.16821541
218	0x3dbfbcca	0.093621805
219	0xbb6a94b4	-0.00357942
220	0xbb00a2b5	-0.001962823
221	0x3c6d0c61	0.014468283
222	0x3d4e53b9	0.050372813
223	0x3db28d26	0.08718328
224	0x3d137ec3	0.03600956
225	0xbec96eb6	-0.39342278
226	0x3e20aae6	0.15690193
227	0x3de536a2	0.11192061
228	0xbc9970c8	-0.018730536
229	0x3b6e020b	0.0036317136
230	0x3dffa2d2	0.124822274
231	0x3e3c2bbd	0.1837606
232	0x3e9d58d0	0.3073182
233	0xbe907fa9	-0.28222397
234	0xbed45c45	-0.41476646
235	0x3e96b902	0.29438025
236	0xbed6eb61	-0.41976455
237	0x3eabd5fc	0.33561695
238	0x3e0cf92e	0.1376693
239	0xbe8e5b94	-0.27804244
240	0x3e785ebc	0.24254888
241	0x3c94d936	0.01816998
242	0xbe208bf4	-0.15678388
243	0xbb684292	-0.003544007
244	0x3dfce2b9	0.123479314
245	0x3ebe3eeb	0.37157378
246	0xbd110259	-0.03540263
247	0x3e53ee8e	0.2069647
248	0x3df44dae	0.11928879
249	0x3b1353bd	0.0022480332
250	0x3ad1420c	0.0015965118
251	0x3e528b24	0.2056089
252	0x3e2fa2ff	0.17152022
253	0x3e9c27b0	0.3049903
254	0x3d6dcebd	0.05805849
255	0x3e871fd3	0.26391467

fc2.weight f4 [5, 256]
0	0x3ecdf449	0.40225437
1	0x3ef83923	0.48481092
2	0xbdf665dc	-0.12031147
3	0x3f4195f5	0.7561944
4	0x3da395ff	0.07987594
5	0xbe5020f9	-0.20325078
6	0x3e8f650d	0.28006783
7	0x3f3084d8	0.68952703
8	0xbeaf6720	-0.34258366
9	0xbe359efc	-0.17736429
10	0xbe3704bb	-0.17872898
11	0xbc0cc758	-0.008592449
12	0x3e388d63	0.18022685
13	0xbcb99ab8	-0.022656783
14	0xbed61d62	-0.41819292
15	0xbe4eed85	-0.20207794
16	0xbf2b06dd	-0.6680735
17	0x3c2a3bbf	0.010390221
18	0xbe0ca3fe	-0.13734433
19	0xbb38e175	-0.0028210555
20	0xbd81cc3e	-0.06337784
21	0x3e2499a1	0.1607423
22	0xbc917980	-0.017758131
23	0xbdc73161	-0.09726215
24	0x3f3ac333	0.729541
25	0xbc7a61a4	-0.015282068
26	0xbba04843	-0.004891427
27	0xbe50667b	-0.20351593
28	0xbe49d4e5	-0.19710119
29	0xbe554bad	-0.2082965
30	0xbf1eae62	-0.6198484
31	0xbeb84406	-0.35989398
32	0x3de520ab	0.111878715
33	0xbd166011	-0.03671271
34	0x3f431e5c	0.762182
35	0xbe919030	-0.2843032
36	0xbdc8780e	-0.097885236
37	0xbe4336e2	-0.19063905
38	0xbeea0468	-0.45706487
39	0x3ebf6b5a	0.3738659
40	0xbea0e28b	-0.3142284
41	0xbf0079d9	-0.50185925
42	0x3ccf1a7a	0.02528118
43	0x3d294501	0.041325573
44	0xbe8b05da	-0.27152902
45	0x3eba12cf	0.36342475
46	0xbf52d72c	-0.82359576
47	0x3ed387eb	0.41314635
48	0x3b66b47d	0.0035202794
49	0xbd5a2dcc	-0.05326633
50	0x3c005c6e	0.007834537
51	0xbed047bb	-0.40679726
52	0xbed66b05	-0.41878524
53	0x3f3bfcd0	0.73432636
54	0xbec83714	-0.3910452
55	0xbef8e62e	-0.48613113
56	0xbdee0a08	-0.11623007
57	0x3dc4dc9c	0.096123904
58	0x3ea9944f	0.33120963
59	0xbe660c57	-0.22465645
60	0x3f7cbd9a	0.9872681
61	0xbd0b2774	-0.033973172
62	0xbee6a5d6	-0.45048398
63	0x3d7a9f8d	0.061187316
64	0x3c96a3a4	0.018388577
65	0x3d40d9ed	0.04708283
66	0x3da46126	0.08026342
67	0xbec7501a	-0.389283
68	0x3e2ff5e7	0.17183648
69	0xbd61ddc0	-0.055143118
70	0x3e827659	0.25480917
71	0x3e5ef704	0.21773916
72	0x3dcfae3a	0.10140653
73	0xbdb5e79a	-0.08882065
74	0xbdbe2054	-0.0928351
75	0xbe4d9f9d	-0.20080419
76	0x3d36b94d	0.04461031
77	0x3ebb7ead	0.36620083
78	0x3e7ac308	0.24488461
79	0x3e773518	0.24141347
80	0x3e93cfe7	0.28869554
81	0x3f3c373d	0.73521787
82	0x3eaa1b0c	0.3322376
83	0x3c72d4fa	0.014821285
84	0xbe4adeaa	-0.19811502
85	0xbf0c299b	-0.54750985
86	0x3e1ac554	0.15114337
87	0x3e9a34ba	0.30118352
88	0xbd939209	-0.07205588
89	0xbe7c02fa	-0.2461051
90	0x3e5e62c8	0.2171737
91	0x3eb27960	0.34858227
92	0xbf10d94a	-0.56581557
93	0x3e81a64f	0.25322196
94	0xbe6f592b	-0.23373859
95	0x3c81e620	0.015856802
96	0xbdecb96e	-0.115588054
97	0xbf090935	-0.53529674
98	0x3ebd0611	0.3691869
99	0xbe62201a	-0.22082558
100	0xbecdc57a	-0.40189725
101	0xbd2c9e8c	-0.04214339
102	0xbf15ade7	-0.5846848
103	0xbe4a7e9f	-0.19774865
104	0xbca3be6d	-0.019988263
105	0xbe251b60	-0.16123724
106	0xbda2a298	-0.079411685
107	0x3d938daa	0.07204755
108	0x3dbf3c11	0.09337629
109	0xbc82e054	-0.015976109
110	0xbd2cc598	-0.042180628
111	0xbd778dc5	-0.060437936
112	0xbe155a2e	-0.14585182
113	0xbe2ca6bf	-0.16860484
114	0xbedd5841	-0.43231395
115	0x3e8d1ec4	0.27562535
116	0x3f196349	0.5991712
117	0xbdbc1f26	-0.091856286
118	0x3f66780e	0.9002694
119	0xbd1ccecc	-0.038283154
120	0xbd35f3c6	-0.044421934
121	0xbd2d2e1a	-0.042280294
122	0x3eb33854	0.35003912
123	0xbe1d97b7	-0.15389906
124	0xbd909c36	-0.07061045
125	0x3ee1c450	0.44095087
126	0xbf657128	-0.8962579
127	0x3ece0fe1	0.4024649
128	0xbce53abc	-0.027982108
129	0x3f342d2a	0.70381415
130	0x3da24cd3	0.07924809
131	0x3c9868bd	0.01860463
132	0x3eb31a39	0.34980944
133	0x3ec78376	0.38967484
134	0xbe462a49	-0.19352068
135	0xbf684f3b	-0.90745896
136	0xbecfc6f2	-0.4058147
137	0xbecbedf7	-0.3982999
138	0x3e305ae5	0.17222174
139	0xbe6b4275	-0.2297457
140	0x3e19cf1e	0.15020415
141	0x3e2aa1bf	0.16663264
142	0x3e6c5809	0.23080458
143	0xbf497c07	-0.78704876
144	0xbe2328aa	-0.15933481
145	0x3d1f7fb6	0.038940154
146	0x3e809620	0.25114536
147	0x3f1d70a0	0.6149998
148	0xbeae8d10	-0.34091997
149	0x3e4970dd	0.1967196
150	0xbe94ec89	-0.29086712
151	0x3d68bcea	0.056820787
152	0x3d850ddf	0.06496786
153	0xbe56412d	-0.209233
154	0xbe8de6e6	-0.27715224
155	0x3ebe3069	0.3714631
156	0xbdfce42a	-0.12348206
157	0xbf9083cc	-1.1290221
158	0x3f4e9873	0.8070137
159	0x3e8d1d67	0.27561495
160	0x3e5ffac2	0.21873
161	0xbc86d974	-0.016461112
162	0xbe935584	-0.2877618
163	0x3dde857e	0.10865305
164	0xbe9c0f32	-0.30480343
165	0x3e239e02	0.15978244
166	0x3fc2614b	1.5185941
167	0x3e259438	0.16169822
168	0x3e89bb10	0.2690053
169	0x3d205d20	0.03915131
170	0xbee57f76	-0.44823807
171	0xbe4d05e3	-0.20021777
172	0xbef1945a	-0.47183496
173	0xbe0842c5	-0.1330672
174	0x3e806243	0.25074968
175	0x3ed9ae21	0.42515662
176	0x3e88536e	0.26626152
177	0x3e732713	0.23745374
178	0x3f333d96	0.7001585
179	0xbf742e46	-0.9538311
180	0x3ee86037	0.45385906
181	0xbddfc6f4	-0.10926619
182	0xbd83e9f9	-0.06441111
183	0xbc6c44ea	-0.014420727
184	0x3ea66df8	0.32505774
185	0x3e0588b4	0.1304043
186	0x3e184152	0.14868668
187	0xbf18c0c6	-0.5966915
188	0xbd31fb7a	-0.043452717
189	0xbef3c06c	-0.47607744
190	0xbf10b342	-0.56523526
191	0xbf25fbe8	-0.64837503
192	0xbe562e8f	-0.20916198
193	0xbf05e443	-0.52301425
194	0xbf2750ca	-0.6535765
195	0x3ded82f7	0.11597245
196	0x3e914da2	0.28379542
197	0xbe06837f	-0.131361
198	0xbef352dc	-0.47524154
199	0xbda96711	-0.082716115
200	0x3d048c57	0.0323604
201	0x3ec74e21	0.38926795
202	0xbbd592c0	-0.006517738
203	0xbd8a2235	-0.06744806
204	0xbd74c9c7	-0.059762742
205	0xbdb9978f	-0.09062111
206	0x3ecb59e4	0.3971702
207	0xbe47e0c0	-0.19519329
208	0xbf0f6c9d	-0.56025106
209	0x3e533828	0.2062689
210	0x3d00779e	0.031364076
211	0xbd918bc5	-0.07106737
212	0xbf754aa7	-0.95817035
213	0xb99064ea	-0.00027541007
214	0x3e8f156c	0.2794603
215	0x3d7bc7a7	0.0614697
216	0xbd908827	-0.07057219
217	0xbddb99ea	-0.10722716
218	0x3e2c871d	0.16848417
219	0x3b320bca	0.0027167671
220	0x3ca6d552	0.02036539
221	0xbe0ce52d	-0.13759299
222	0x3d9d34bd	0.07676075
223	0xbf436c7c	-0.7633741
224	0x3dfd1d46	0.12359099
225	0x3e973d20	0.29538822
226	0x3bbfdea0	0.0058553964
227	0xbcf6d73c	-0.030131929
228	0xbe4cd187	-0.20001803
229	0xbd916539	-0.07099385
230	0xbc94c492	-0.018160138
231	0xbf186120	-0.595232
232	0xbf35d2b5	-0.7102464
233	0x3e8dcdb0	0.2769599
234	0x3efd36fc	0.49456012
235	0xbf18a118	-0.5962081
236	0x3ea7d1c7	0.32777235
237	0xbea1217b	-0.31470856
238	0x3da7e16a	0.08197291
239	0x3e53bcb7	0.20677458
240	0xbee6287a	-0.44952756
241	0x3e9976b9	0.2997339
242	0x3db5653a	0.08857198
243	0xbd9f324e	-0.07773267
244	0xbe90fc13	-0.28317317
245	0xbeab59d9	-0.33466986
246	0x3c960372	0.01831219
247	0xbec01cdb	-0.37522015
248	0xbe2a9369	-0.16657795
249	0xbb6985ba	-0.0035632686
250	0x3d205f7a	0.039153554
251	0xbe063048	-0.13104355
252	0x3db33b1e	0.0875151
253	0xbf385dc2	-0.72018063
254	0xbeadfffd	-0.33984366
255	0xbeafb16b	-0.34315047

fc2.bias f4 [5]
0	0xbf6ecc0b	-0.93280095
1	0x3f5644ce	0.8369874
2	0xbdf28db3	-0.11843433
3	0x3f076edc	0.52903533
4	0xbea12c6b	-0.314792
